…
        skipping due to on all images had less than 60% has a hand
        current in progress idx 34
        1/1 ━━━━━━━━━━━━━━━━━━━━ 0s 39ms/step
        correct( should be cousin ) calculated be cousin 88.66239786148071%
        correct 14 / 25 = 56.00000000000001%


batch train size( TRAIN_BATCH ): 2
T10_GLOSS: 10

Model: "functional"
┏━━━━━━━━━━━━━━━━━━━━━━━━━━━━━━━━━━━━━━┳━━━━━━━━━━━━━━━━━━━━━━━━━━━━━┳━━━━━━━━━━━━━━━━━┓
┃ Layer (type)                         ┃ Output Shape                ┃         Param # ┃
┡━━━━━━━━━━━━━━━━━━━━━━━━━━━━━━━━━━━━━━╇━━━━━━━━━━━━━━━━━━━━━━━━━━━━━╇━━━━━━━━━━━━━━━━━┩
│ batch_vid (InputLayer)               │ (None, 20, 150, 150, 3)     │               0 │
├──────────────────────────────────────┼─────────────────────────────┼─────────────────┤
│ p1_cnn_2d (Conv3D)                   │ (None, 20, 148, 148, 128)   │           3,584 │
├──────────────────────────────────────┼─────────────────────────────┼─────────────────┤
│ p1_mp_2d (MaxPooling3D)              │ (None, 20, 74, 74, 128)     │               0 │
├──────────────────────────────────────┼─────────────────────────────┼─────────────────┤
│ p1_cnn_3d (Conv3D)                   │ (None, 18, 74, 74, 128)     │          49,280 │
├──────────────────────────────────────┼─────────────────────────────┼─────────────────┤
│ p1_mp_3d (MaxPooling3D)              │ (None, 9, 74, 74, 128)      │               0 │
├──────────────────────────────────────┼─────────────────────────────┼─────────────────┤
│ do_1 (Dropout)                       │ (None, 9, 74, 74, 128)      │               0 │
├──────────────────────────────────────┼─────────────────────────────┼─────────────────┤
│ p2_cnn_2d (Conv3D)                   │ (None, 9, 72, 72, 64)       │          73,792 │
├──────────────────────────────────────┼─────────────────────────────┼─────────────────┤
│ p2_mp_2d (MaxPooling3D)              │ (None, 9, 24, 24, 64)       │               0 │
├──────────────────────────────────────┼─────────────────────────────┼─────────────────┤
│ p2_cnn_3d (Conv3D)                   │ (None, 7, 24, 24, 64)       │          12,352 │
├──────────────────────────────────────┼─────────────────────────────┼─────────────────┤
│ p2_mp_3d (MaxPooling3D)              │ (None, 6, 24, 24, 64)       │               0 │
├──────────────────────────────────────┼─────────────────────────────┼─────────────────┤
│ do_2 (Dropout)                       │ (None, 6, 24, 24, 64)       │               0 │
├──────────────────────────────────────┼─────────────────────────────┼─────────────────┤
│ p3_cnn_2d (Conv3D)                   │ (None, 6, 22, 22, 8)        │           4,616 │
├──────────────────────────────────────┼─────────────────────────────┼─────────────────┤
│ p3_mp_2d (MaxPooling3D)              │ (None, 6, 11, 11, 8)        │               0 │
├──────────────────────────────────────┼─────────────────────────────┼─────────────────┤
│ p3_cnn_3d (Conv3D)                   │ (None, 4, 11, 11, 8)        │             200 │
├──────────────────────────────────────┼─────────────────────────────┼─────────────────┤
│ p4_cnn_2d (Conv3D)                   │ (None, 4, 9, 9, 10)         │             730 │
├──────────────────────────────────────┼─────────────────────────────┼─────────────────┤
│ p4_mp_2d (MaxPooling3D)              │ (None, 4, 3, 3, 10)         │               0 │
├──────────────────────────────────────┼─────────────────────────────┼─────────────────┤
│ flat (Flatten)                       │ (None, 360)                 │               0 │
├──────────────────────────────────────┼─────────────────────────────┼─────────────────┤
│ batch_class (Dense)                  │ (None, 10)                  │           3,610 │
└──────────────────────────────────────┴─────────────────────────────┴─────────────────┘
 Total params: 148,164 (578.77 KB)
 Trainable params: 148,164 (578.77 KB)
 Non-trainable params: 0 (0.00 B)
1400/1400 ━━━━━━━━━━━━━━━━━━━━ 2070s 1s/step - accuracy: 0.5214 - loss: 1.3310 - val_accuracy: 0.4565 - val_loss: 3.0661 - learning_rate: 0.0010
input size: (20, 150, 150, 3) with getdata() already in [0.0, 1.0] float32
optimizer: Adam(learning_rate=0.001),
loss: sparse_categorical_crossentropy,
metrics: ['accuracy']
epoch: 1
steps_per_epoch: int(ceil((T10_TRAIN*2*7)/TRAIN_BATCH))

20            150            150            3
20            148            148            128       <-- (1,3,3) 128  <--- (1,1,1) cnn
20            74             74             128       <-- (1,2,2)      <--- (1,2,2) mp
18            74             74             128       <-- (3,1,1) 128  <--- (3,1,1) cnn
9             74             74             128       <-- (2,1,1)      <--- (2,1,1) mp
9             74             74             128       <-- 0.1 dropout

9             72             72             64        <-- (1,3,3) 64   <--- (1,3,3) CNN
9             24             24             64        <-- (1,3,3)      <--- (1,3,3) mp
7             24             24             64        <-- (3,1,1) 64   <--- (3,1,1) cnn
6             24             24             64        <-- (2,1,1)      <--- (1,1,1) mp
6             24             24             64        <-- 0.1 droput

6             22             22             8         <-- (1,3,3) 8    <--- (1,1,1) CNN
6             11             11             8         <-- (1,2,2)      <--- (1,2,2) mp
4             11             11             8         <-- (3,1,1) 8    <--- (1,1,1) CNN

4             9              9              10        <-- (1,2,2) 10   <--- (1,2,2) mp
4             3              3              10        <-- (1,3,3) 10   <--- (1,3,3) mp

360                                                   <-- flatten 4*3*3*10= 360

10                                                    <-- nueral network softmax 10


data_in= Input(
    shape=(QUANTITY_FRAME, IMG_SIZE, IMG_SIZE, 3),
    dtype=float32,
    name='batch_vid'
)


x= Conv3D(
    filters=128,
    kernel_size=(1,3,3),
    strides=(1,1,1),
    padding='valid',
    data_format='channels_last',
…
