…
        7145/7145 ━━━━━━━━━━━━━━━━━━━━ 10240s 1s/step - accuracy: 0.4020 - loss: 3.6782
        Epoch 2/2
        7145/7145 ━━━━━━━━━━━━━━━━━━━━ 10222s 1s/step - accuracy: 0.7064 - loss: 1.4489
    and yet testing see ./aslvid2gloss_v10.2.keras above

model file ./aslvid2gloss_v10.keras

batch train size( TRAIN_BATCH ): 2
TOTAL_GLOSS_UNIQ: 2000

Model: "functional"
┏━━━━━━━━━━━━━━━━━━━━━━━━━━━━━━━━━━━━━━┳━━━━━━━━━━━━━━━━━━━━━━━━━━━━━┳━━━━━━━━━━━━━━━━━┓
┃ Layer (type)                         ┃ Output Shape                ┃         Param # ┃
┡━━━━━━━━━━━━━━━━━━━━━━━━━━━━━━━━━━━━━━╇━━━━━━━━━━━━━━━━━━━━━━━━━━━━━╇━━━━━━━━━━━━━━━━━┩
│ batch_vid (InputLayer)               │ (None, 3000, 150, 3)        │               0 │
├──────────────────────────────────────┼─────────────────────────────┼─────────────────┤
│ cnn2d_1 (Conv2D)                     │ (None, 2998, 148, 8)        │             224 │ <-- cnn2d (3,3) -- (1,1)
├──────────────────────────────────────┼─────────────────────────────┼─────────────────┤
│ mp2d_1 (MaxPooling2D)                │ (None, 1499, 74, 8)         │               0 │ <-- (2,2) -- (2,2)
├──────────────────────────────────────┼─────────────────────────────┼─────────────────┤
│ do_1 (Dropout)                       │ (None, 1499, 74, 8)         │               0 │
├──────────────────────────────────────┼─────────────────────────────┼─────────────────┤
│ cnn2d_2 (Conv2D)                     │ (None, 1497, 72, 16)        │           1,168 │ <-- cnn2d (3,3) -- (1,1)
├──────────────────────────────────────┼─────────────────────────────┼─────────────────┤
│ mp2d_2 (MaxPooling2D)                │ (None, 748, 36, 16)         │               0 │ <-- (2,2) -- (2,2)
├──────────────────────────────────────┼─────────────────────────────┼─────────────────┤
│ do_2 (Dropout)                       │ (None, 748, 36, 16)         │               0 │
├──────────────────────────────────────┼─────────────────────────────┼─────────────────┤
│ cnn2d_3 (Conv2D)                     │ (None, 746, 34, 24)         │           3,480 │ <-- cnn2d (3,3) -- (1,1)
├──────────────────────────────────────┼─────────────────────────────┼─────────────────┤
│ mp2d_3 (MaxPooling2D)                │ (None, 373, 17, 24)         │               0 │ <-- (2,2) -- (2,2)
├──────────────────────────────────────┼─────────────────────────────┼─────────────────┤
│ do_3 (Dropout)                       │ (None, 373, 17, 24)         │               0 │
├──────────────────────────────────────┼─────────────────────────────┼─────────────────┤
│ cnn2d_4 (Conv2D)                     │ (None, 371, 15, 24)         │           5,208 │ <-- cnn2d (3,3) -- (1,1)
├──────────────────────────────────────┼─────────────────────────────┼─────────────────┤
│ mp2d_4 (MaxPooling2D)                │ (None, 185, 7, 24)          │               0 │ <-- (2,2) -- (2,2)
├──────────────────────────────────────┼─────────────────────────────┼─────────────────┤
│ do_4 (Dropout)                       │ (None, 185, 7, 24)          │               0 │
├──────────────────────────────────────┼─────────────────────────────┼─────────────────┤
│ cnn2d_5 (Conv2D)                     │ (None, 183, 5, 24)          │           5,208 │ <-- cnn2d (3,3) -- (1,1)
├──────────────────────────────────────┼─────────────────────────────┼─────────────────┤
│ flat_1 (Flatten)                     │ (None, 21960)               │               0 │ <-- 183*5*24= 21960
├──────────────────────────────────────┼─────────────────────────────┼─────────────────┤
│ batch_class (Dense)                  │ (None, 2000)                │      43,922,000 │
└──────────────────────────────────────┴─────────────────────────────┴─────────────────┘
 Total params: 43,937,288 (167.61 MB)
 Trainable params: 43,937,288 (167.61 MB)
 Non-trainable params: 0 (0.00 B)
Epoch 1/2
7145/7145 ━━━━━━━━━━━━━━━━━━━━ 9960s 1s/step - accuracy: 0.0048 - loss: 7.5062
Epoch 2/2
7145/7145 ━━━━━━━━━━━━━━━━━━━━ 9185s 1s/step - accuracy: 0.3859 - loss: 3.5245
input size: (20*150, 150, 3) with getdata(isSimg=True) already in [0.0, 1.0] float32
…
